…
c198411e"}},"metadata":{}}]},{"cell_type":"code","source":"model","metadata":{"execution":{"iopub.status.busy":"2024-04-24T18:28:12.623329Z","iopub.execute_input":"2024-04-24T18:28:12.624052Z","iopub.status.idle":"2024-04-24T18:28:12.634990Z","shell.execute_reply.started":"2024-04-24T18:28:12.624009Z","shell.execute_reply":"2024-04-24T18:28:12.633998Z"},"trusted":true},"execution_count":4,"outputs":[{"execution_count":4,"output_type":"execute_result","data":{"text/plain":"RobertaForSequenceClassification(\n  (roberta): RobertaModel(\n    (embeddings): RobertaEmbeddings(\n      (word_embeddings): Embedding(50265, 768, padding_idx=1)\n      (position_embeddings): Embedding(514, 768, padding_idx=1)\n      (token_type_embeddings): Embedding(1, 768)\n      (LayerNorm): LayerNorm((768,), eps=1e-05, elementwise_affine=True)\n      (dropout): Dropout(p=0.1, inplace=False)\n    )\n    (encoder): RobertaEncoder(\n      (layer): ModuleList(\n        (0-11): 12 x RobertaLayer(\n          (attention): RobertaAttention(\n            (self): RobertaSelfAttention(\n              (query): Linear(in_features=768, out_features=768, bias=True)\n              (key): Linear(in_features=768, out_features=768, bias=True)\n              (value): Linear(in_features=768, out_features=768, bias=True)\n              (dropout): Dropout(p=0.1, inplace=False)\n            )\n            (output): RobertaSelfOutput(\n              (dense): Linear(in_features=768, out_features=768, bias=True)\n              (LayerNorm): LayerNorm((768,), eps=1e-05, elementwise_affine=True)\n              (dropout): Dropout(p=0.1, inplace=False)\n            )\n          )\n          (intermediate): RobertaIntermediate(\n            (dense): Linear(in_features=768, out_features=3072, bias=True)\n            (intermediate_act_fn): GELUActivation()\n          )\n          (output): RobertaOutput(\n            (dense): Linear(in_features=3072, out_features=768, bias=True)\n            (LayerNorm): LayerNorm((768,), eps=1e-05, elementwise_affine=True)\n            (dropout): Dropout(p=0.1, inplace=False)\n          )\n        )\n      )\n    )\n  )\n  (classifier): RobertaClassificationHead(\n    (dense): Linear(in_features=768, out_features=768, bias=True)\n    (dropout): Dropout(p=0.1, inplace=False)\n    (out_proj): Linear(in_features=768, out_features=2, bias=True)\n  )\n)"},"metadata":{}}]},{"cell_type":"code","source":"# dataset['train']['text'][25]\ndef tokenize_fn(text):\n    tokenized =  tokenizer(text['text'], \n                   truncation = True, \n                   max_length = 512, \n                   return_tensors='pt',\n                  )\n    \n    return tokenized\n","metadata":{"execution":{"iop
…
